parameters.npz (npz, 2152 bytes, 6 tensors)

U f8 [5, 5]
000000 7c 30 a9 28 2a ca df 3f 2a 05 de 05 a5 b2 c1 bf
       0.4967141530112327 -0.13826430117118466
000010 68 5e 24 50 dd b9 e4 3f 2b aa 01 8e 54 5e f8 3f
       0.6476885381006925 1.5230298564080254
000020 40 a6 57 df bc f8 cd bf 3b db 70 26 33 f8 cd bf
       -0.23415337472333597 -0.23413695694918055
000030 08 74 40 a8 74 44 f9 3f f3 d7 f0 46 d3 8e e8 3f
       1.5792128155073915 0.7674347291529088
000040 8b 9e 79 4b de 0b de bf 7d 2d 6a e1 a6 5c e1 3f
       -0.4694743859349521 0.5425600435859647
000050 70 1b c1 ae a2 a8 dd bf e7 ef 16 2b 84 ce dd bf
       -0.46341769281246226 -0.46572975357025687
000060 70 f9 9e a5 9e f8 ce 3f be 35 ee be cb 9c fe bf
       0.24196227156603412 -1.913280244657798
000070 12 e4 ee 70 43 99 fb bf 63 3c a1 6a 42 fe e1 bf
       -1.7249178325130328 -0.5622875292409727
000080 79 51 a3 67 8e 34 f0 bf 1f 86 16 d8 a0 1c d4 3f
       -1.0128311203344238 0.3142473325952739
000090 f9 03 8b 81 88 0e ed bf c7 13 14 c4 cb 98 f6 bf
       -0.9080240755212109 -1.4123037013352915
0000a0 41 0d 9f 1f 4c 73 f7 3f d9 98 66 e1 3c e6 cc bf
       1.465648768921554 -0.22577630048653566
0000b0 c6 35 b1 46 87 49 b1 3f 62 27 0d c1 c4 cb f6 bf
       0.06752820468792384 -1.4247481862134568
0000c0 28 fa ca 51 95 6b e1 bf
       -0.5443827245251827

bu f8 [5, 1]
000000 35 06 31 3f 6c 65 bc 3f 15 f5 ce 3d 78 6a f2 bf
       0.11092258970986608 -1.1509935774223028
000010 e8 dd 7d b3 6f 0b d8 3f d2 3b 3d a1 6e 38 e3 bf
       0.37569801834567196 -0.600638689918805
000020 a0 d2 f3 42 1c ab d2 bf
       -0.2916937497932768

W f8 [5, 5]
000000 a7 fd a9 39 2e 41 e3 bf 57 f6 18 73 ee a2 fd 3f
       -0.6017066122293969 1.8522781845089378
000010 86 83 b0 d6 6e a4 8b bf 46 cc 87 4b 62 ec f0 bf
       -0.013497224737933921 -1.0577109289559004
000020 37 2e 1f b5 49 52 ea 3f 1c 7a e2 59 93 88 f3 bf
       0.822544912103189 -1.2208436499710222
000030 b5 69 ef d2 0a bc ca 3f c3 30 50 0f cf 5a ff bf
       0.2088635950047554 -1.9596701238797756
000040 ff 5a b0 03 40 40 f5 bf 40 3a f4 bc bf 32 c9 3f
       -1.3281860488984305 0.19686123586912352
000050 be 9d 48 aa 84 a1 e7 3f 0c 2e a4 55 65 ef c5 3f
       0.7384665799954104 0.1713682811899705
000060 5f 31 b2 36 20 9b bd bf e1 af 50 6f 48 45 d3 bf
       -0.11564828238824053 -0.3011036955892888
000070 06 b8 b0 ac 06 a8 f7 bf 27 a6 a8 b8 f6 08 e7 bf
       -1.4785219903674274 -0.7198442083947086
000080 d9 ae 22 0a 1b 7b dd bf 62 c2 d7 fe f8 e9 f0 3f
       -0.4606387709597875 1.0571222262189157
000090 88 41 00 91 d7 fd d5 3f 4e 15 0d 98 69 35 fc bf
       0.3436182895684614 -1.763040155362734
0000a0 38 58 6d b0 ca bd d4 3f 40 0f 2a 26 30 a5 d8 bf
       0.324083969394795 -0.38508228041631654
0000b0 4d 39 a8 53 58 a9 e5 bf f9 ec 09 27 da 92 e3 3f
       -0.6769220003059587 0.6116762888408679
0000c0 d4 fc f4 5a f9 7e f0 3f
       1.030999522495951

bw f8 [5, 1]
000000 1e 9c e0 f6 0b cd ed 3f 53 15 0f b5 de da ea bf
       0.9312801191161986 -0.8392175232226385
000010 cf 29 73 b4 22 ca d3 bf 8a 4c 0f 89 6b 33 d5 3f
       -0.3092123758512146 0.33126343140356396
000020 00 68 18 6a aa 37 ef 3f
       0.9755451271223592

V f8 [5, 5]
000000 55 66 28 6c ca aa de bf 13 6e 7d 60 ac c3 c7 bf
       -0.47917423784528995 -0.18565897666381712
000010 30 6e 3c 4d 8c b3 f1 bf f4 f5 9a 8e a9 23 f3 bf
       -1.1063349740060282 -1.1962066240806708
000020 b0 d5 4a 27 36 00 ea 3f fd cd 83 be 28 b3 f5 3f
       0.812525822394198 1.356240028570823
000030 fa 23 2b 5d 41 6f b2 bf 6a 80 0e 83 78 0e f0 3f
       -0.07201012158033385 1.0035328978920242
000040 42 a4 28 6d 0b 25 d7 3f af 0a 01 2f d2 a4 e4 bf
       0.36163602504763415 -0.6451197546051243
000050 8f e9 a4 08 1b 21 d7 3f 20 60 10 3b cc 9b f8 3f
       0.36139560550841393 1.5380365664659692
000060 52 19 a5 64 ca 57 a2 bf 31 d7 39 c9 c7 08 f9 3f
       -0.03582603910995154 1.5646436558140062
000070 5f 5f cf eb 3c f5 04 c0 bf 58 19 7b 06 4d ea 3f
       -2.6197451040897444 0.8219025043752238
000080 20 ae 4b 77 b7 48 b6 3f bf ed e0 b9 ef 22 d3 bf
       0.08704706823817121 -0.2990073504658674
000090 38 8a 46 5e a2 7d b7 3f e2 1c ec 0f 15 cd ff bf
       0.0917607765355023 -1.9875689146008928
0000a0 c1 6c 0e 5b 35 1e cc bf d3 89 e8 af ee da d6 3f
       -0.21967188783751193 0.3571125715117464
0000b0 37 e3 d1 39 74 a5 f7 3f 30 3c bf 6c ab 95 e0 bf
       1.477894044741516 -0.5182702182736474
0000c0 4b 72 ee f9 2d df e9 bf
       -0.8084936028931876

bv f8 [5, 1]
000000 a1 76 97 c9 64 0e e0 bf 90 06 c7 61 f9 4a ed 3f
       -0.5017570435845365 0.9154021177020741
000010 80 c5 20 18 42 0a d5 3f f4 da bc ab cb f3 e0 bf
       0.32875110965968446 -0.5297602037670388
000020 03 5c ea d2 af 6c e0 3f
       0.5132674331133561
